net_module.pth (torch, 2143 bytes, 4 tensors)

gcn1.linear.weight f4 [8, 16]
000000 e8 8e 4f be 8d bd 77 3e 54 76 22 be 6f c8 4d 3e
       -0.20269358 0.24193402 -0.15865451 0.2009599
000010 34 0e 8a be d5 20 26 bc be ff 90 be f0 58 7f 3e
       -0.2696396 -0.010139664 -0.28320116 0.2493627
000020 a1 a6 39 be d3 83 83 3e 0f 98 07 be 8b 76 ad bd
       -0.1812997 0.2568651 -0.132416 -0.08469876
000030 40 27 b5 3c 41 27 91 be da c1 65 3e b8 88 da be
       0.022113442 -0.2835026 0.2243723 -0.42682433
000040 76 dc 81 3e 76 5f 04 3e b8 ac 99 bd cf d3 93 3d
       0.2536351 0.1292704 -0.075036466 0.07218134
000050 b1 f3 aa bd 3c 4d e9 3d e3 44 30 be 5c 81 8d 3e
       -0.08347262 0.113916844 -0.17213778 0.27637756
000060 08 8e 24 be 12 51 b7 bd 04 8e 28 be 6d 22 58 3d
       -0.16069806 -0.0895101 -0.16460425 0.052767206
000070 81 b2 13 3e 06 00 cf be 39 b0 8e 3e a7 b3 7e be
       0.14423563 -0.40429705 0.27868822 -0.2487322
000080 65 d8 87 3d 3c 19 8c be 7e bb 84 bd db d0 25 be
       0.06633071 -0.27363002 -0.06481074 -0.16192953
000090 9b d2 82 be 9c 85 c1 bb c2 98 9d be 72 94 d1 3d
       -0.25551304 -0.00590582 -0.30780607 0.10233392
0000a0 54 25 1c be cc 30 77 bd 5c 24 a1 bd 99 ce 64 bd
       -0.15248615 -0.06034927 -0.07868263 -0.05586109
0000b0 71 6d 75 be d4 5a 9d be dd 3b 15 3e 98 0d 43 bd
       -0.2396753 -0.3073336 0.14573617 -0.047620386
0000c0 6a 7e 8c 3e 93 7c 8a be f3 b9 1b be c6 8e fd bd
       0.27440196 -0.27048168 -0.15207653 -0.123807475
0000d0 8d 4c 32 be b8 94 e1 3d 9b a8 2c be f3 5d 4d bd
       -0.17412014 0.11014694 -0.16861193 -0.050138425
0000e0 b3 6d 65 bd 4e 3f 99 be 66 ba 8e be 79 ca 0b bb
       -0.05601282 -0.2993111 -0.27876586 -0.00213304
0000f0 f1 68 c5 3d 5a 1c 4c be 24 93 36 3e 41 93 37 3d
       0.096391566 -0.1993269 0.17829567 0.044818167
000100 96 87 57 3e d5 7f 32 3e 75 43 d2 3d 56 96 a4 bd
       0.21047816 0.17431577 0.10266773 -0.08036487
000110 25 0e d4 be b4 d8 c0 bd d9 1e 12 3e 0d f8 e5 3d
       -0.4141704 -0.09416333 0.1426958 0.112289526
000120 da c5 17 3e fb 31 da bd 8f e2 0b 3d 84 0a 25 3e
       0.14821568 -0.10654064 0.03415161 0.16117293
000130 8d 46 2b 3e 36 e9 9a bd d8 4f b3 3d fe 0e 07 bf
       0.16726132 -0.07564013 0.08755463 -0.5275725
000140 7d 00 94 be c0 e6 5f 3d b1 ba 02 bd 62 0b 76 be
       -0.28906623 0.05466342 -0.031916324 -0.2402778
000150 cc 9e 50 bd 17 b5 ec bd 14 aa 8e be 22 97 14 bd
       -0.05093269 -0.11557978 -0.27864134 -0.036276944
000160 f8 7f 61 be 5f 4b 7b bd 7d a8 7a be 69 af b5 3d
       -0.22021472 -0.061351176 -0.24478336 0.088713475
000170 b8 ec 81 3e 85 04 5d be 2d de 7e bd b7 63 67 bc
       0.25375915 -0.21583755 -0.062223602 -0.014122895
000180 66 8c 4e 3d 1a ba 2d 3e b6 36 9b 3d dd 98 7c 3e
       0.050426863 0.16965523 0.07578795 0.24667688
000190 f0 4b 20 be 00 03 ad bd 4a 24 26 be 9e 7e 59 3e
       -0.15653968 -0.08447838 -0.1622478 0.21239707
0001a0 c1 64 75 bd f2 e4 17 3e 42 6b b6 3c b9 1b 2a be
       -0.05991054 0.1483343 0.022267941 -0.16612138
0001b0 5d 8b 46 3e 76 45 3d be 0e 98 16 3a d6 1e 6b be
       0.193891 -0.18483528 0.0005744704 -0.22960982
0001c0 59 78 63 be 28 ce 75 be f3 7e ad bd 54 1b 5e be
       -0.22213878 -0.24004424 -0.08471479 -0.21690112
0001d0 92 35 b4 bd 04 73 d8 3d a0 b4 3a be a1 40 45 be
       -0.0879928 0.105688125 -0.18232965 -0.19262935
0001e0 a7 07 f9 bd 42 23 6e be 7b de 02 3e c4 16 1a 3e
       -0.12159663 -0.23255637 0.12780182 0.15047747
0001f0 4b eb 43 bd 16 82 e7 3d 58 c5 40 be 62 e7 07 be
       -0.047831815 0.11304109 -0.1882528 -0.1327186

gcn1.linear.bias f4 [8]
000000 f6 bc 3d bc 5f b9 5b 3e f6 58 c3 3d 34 f0 86 3e
       -0.011580696 0.21457432 0.09538452 0.26355135
000010 eb 06 ed bb 4c 25 20 be 1d 95 a2 be 24 cb 48 bd
       -0.0072334907 -0.15639228 -0.3175439 -0.049021855

gcn2.linear.weight f4 [2, 8]
000000 15 e0 c9 3e bd 78 6d 3e f5 e6 cd bd 56 06 f0 3d
       0.39428774 0.23190589 -0.10053817 0.117199585
000010 f1 9a a3 bd a0 0c ca 3e d3 24 a4 3e 01 e2 3b 3e
       -0.07988537 0.39462757 0.32059345 0.18347932
000020 55 cf 7a 3e 4f 1d 22 be ba 90 0a 3e c2 ec ef 3d
       0.24493153 -0.15831493 0.13531771 0.1171508
000030 41 5f ad be ac 9f a5 ba c9 c9 38 be 6a b1 0d 3e
       -0.33861735 -0.0012636087 -0.18045725 0.1383721

gcn2.linear.bias f4 [2]
000000 4f 42 b8 bf 00 5a 92 3f
       -1.4395236 1.1433716
